…
Beta 1: 0.5

Discriminator Optimizer (Adam):
Learning Rate: 0.00019999999494757503
Beta 1: 0.5
==================================================
MODEL ARCHITECTURES
==================================================

-------------------- Generator Architecture --------------------
Model: "sequential"
┏━━━━━━━━━━━━━━━━━━━━━━━━━━━━━━━━━━━━━━┳━━━━━━━━━━━━━━━━━━━━━━━━━━━━━┳━━━━━━━━━━━━━━━━━┓
┃ Layer (type)                         ┃ Output Shape                ┃         Param # ┃
┡━━━━━━━━━━━━━━━━━━━━━━━━━━━━━━━━━━━━━━╇━━━━━━━━━━━━━━━━━━━━━━━━━━━━━╇━━━━━━━━━━━━━━━━━┩
│ dense (Dense)                        │ (None, 36864)               │       3,686,400 │
├──────────────────────────────────────┼─────────────────────────────┼─────────────────┤
│ batch_normalization                  │ (None, 36864)               │         147,456 │
│ (BatchNormalization)                 │                             │                 │
├──────────────────────────────────────┼─────────────────────────────┼─────────────────┤
│ leaky_re_lu (LeakyReLU)              │ (None, 36864)               │               0 │
├──────────────────────────────────────┼─────────────────────────────┼─────────────────┤
│ reshape (Reshape)                    │ (None, 12, 12, 256)         │               0 │
├──────────────────────────────────────┼─────────────────────────────┼─────────────────┤
│ conv2d_transpose (Conv2DTranspose)   │ (None, 24, 24, 128)         │         819,200 │
├──────────────────────────────────────┼─────────────────────────────┼─────────────────┤
│ batch_normalization_1                │ (None, 24, 24, 128)         │             512 │
│ (BatchNormalization)                 │                             │                 │
├──────────────────────────────────────┼─────────────────────────────┼─────────────────┤
│ leaky_re_lu_1 (LeakyReLU)            │ (None, 24, 24, 128)         │               0 │
├──────────────────────────────────────┼─────────────────────────────┼─────────────────┤
│ conv2d_transpose_1 (Conv2DTranspose) │ (None, 48, 48, 64)          │         204,800 │
├──────────────────────────────────────┼─────────────────────────────┼─────────────────┤
│ batch_normalization_2                │ (None, 48, 48, 64)          │             256 │
│ (BatchNormalization)                 │                             │                 │
├──────────────────────────────────────┼─────────────────────────────┼─────────────────┤
│ leaky_re_lu_2 (LeakyReLU)            │ (None, 48, 48, 64)          │               0 │
├──────────────────────────────────────┼─────────────────────────────┼─────────────────┤
│ conv2d_transpose_2 (Conv2DTranspose) │ (None, 96, 96, 1)           │           1,600 │
└──────────────────────────────────────┴─────────────────────────────┴─────────────────┘
 Total params: 4,860,224 (18.54 MB)
 Trainable params: 4,786,112 (18.26 MB)
 Non-trainable params: 74,112 (289.50 KB)


-------------------- Discriminator Architecture --------------------
Model: "sequential_1"
┏━━━━━━━━━━━━━━━━━━━━━━━━━━━━━━━━━━━━━━┳━━━━━━━━━━━━━━━━━━━━━━━━━━━━━┳━━━━━━━━━━━━━━━━━┓
┃ Layer (type)                         ┃ Output Shape                ┃         Param # ┃
┡━━━━━━━━━━━━━━━━━━━━━━━━━━━━━━━━━━━━━━╇━━━━━━━━━━━━━━━━━━━━━━━━━━━━━╇━━━━━━━━━━━━━━━━━┩
│ conv2d (Conv2D)                      │ (None, 48, 48, 64)          │           1,664 │
├──────────────────────────────────────┼─────────────────────────────┼─────────────────┤
│ leaky_re_lu_3 (LeakyReLU)            │ (None, 48, 48, 64)          │               0 │
├──────────────────────────────────────┼─────────────────────────────┼─────────────────┤
│ dropout (Dropout)                    │ (None, 48, 48, 64)          │               0 │
├──────────────────────────────────────┼─────────────────────────────┼─────────────────┤
│ conv2d_1 (Conv2D)                    │ (None, 24, 24, 128)         │         204,928 │
├──────────────────────────────────────┼─────────────────────────────┼─────────────────┤
│ leaky_re_lu_4 (LeakyReLU)            │ (None, 24, 24, 128)         │               0 │
├──────────────────────────────────────┼─────────────────────────────┼─────────────────┤
│ dropout_1 (Dropout)                  │ (None, 24, 24, 128)         │               0 │
├──────────────────────────────────────┼─────────────────────────────┼─────────────────┤
│ conv2d_transpose_3 (Conv2DTranspose) │ (None, 48, 48, 64)          │         204,800 │
├──────────────────────────────────────┼─────────────────────────────┼─────────────────┤
│ batch_normalization_3                │ (None, 48, 48, 64)          │             256 │
│ (BatchNormalization)                 │                             │                 │
├──────────────────────────────────────┼─────────────────────────────┼─────────────────┤
│ leaky_re_lu_5 (LeakyReLU)            │ (None, 48, 48, 64)          │               0 │
├──────────────────────────────────────┼─────────────────────────────┼─────────────────┤
│ flatten (Flatten)                    │ (None, 147456)              │               0 │
├──────────────────────────────────────┼─────────────────────────────┼─────────────────┤
│ dense_1 (Dense)                      │ (None, 1)                   │         147,457 │
└──────────────────────────────────────┴─────────────────────────────┴─────────────────┘
 Total params: 559,105 (2.13 MB)
 Trainable params: 558,977 (2.13 MB)
 Non-trainable params: 128 (512.00 B)


==================================================
TRAINING RESULTS FOLLOW BELOW
==================================================

Epoch,Time(s),Generator_Loss,Discriminator_Loss
1,255.60,15.7576,1.2270
…
