…
Beta 1: 0.5

Discriminator Optimizer (Adam):
Learning Rate: 0.00019999999494757503
Beta 1: 0.5
==================================================
MODEL ARCHITECTURES
==================================================

-------------------- Generator Architecture --------------------
Model: "sequential"
┏━━━━━━━━━━━━━━━━━━━━━━━━━━━━━━━━━━━━━━┳━━━━━━━━━━━━━━━━━━━━━━━━━━━━━┳━━━━━━━━━━━━━━━━━┓
┃ Layer (type)                         ┃ Output Shape                ┃         Param # ┃
┡━━━━━━━━━━━━━━━━━━━━━━━━━━━━━━━━━━━━━━╇━━━━━━━━━━━━━━━━━━━━━━━━━━━━━╇━━━━━━━━━━━━━━━━━┩
│ dense (Dense)                        │ (None, 9216)                │         921,600 │
├──────────────────────────────────────┼─────────────────────────────┼─────────────────┤
│ batch_normalization                  │ (None, 9216)                │          36,864 │
│ (BatchNormalization)                 │                             │                 │
├──────────────────────────────────────┼─────────────────────────────┼─────────────────┤
│ leaky_re_lu (LeakyReLU)              │ (None, 9216)                │               0 │
├──────────────────────────────────────┼─────────────────────────────┼─────────────────┤
│ reshape (Reshape)                    │ (None, 6, 6, 256)           │               0 │
├──────────────────────────────────────┼─────────────────────────────┼─────────────────┤
│ conv2d_transpose (Conv2DTranspose)   │ (None, 24, 24, 64)          │         262,144 │
├──────────────────────────────────────┼─────────────────────────────┼─────────────────┤
│ batch_normalization_1                │ (None, 24, 24, 64)          │             256 │
│ (BatchNormalization)                 │                             │                 │
├──────────────────────────────────────┼─────────────────────────────┼─────────────────┤
│ leaky_re_lu_1 (LeakyReLU)            │ (None, 24, 24, 64)          │               0 │
├──────────────────────────────────────┼─────────────────────────────┼─────────────────┤
│ conv2d_transpose_1 (Conv2DTranspose) │ (None, 96, 96, 1)           │           1,024 │
└──────────────────────────────────────┴─────────────────────────────┴─────────────────┘
 Total params: 1,221,888 (4.66 MB)
 Trainable params: 1,203,328 (4.59 MB)
 Non-trainable params: 18,560 (72.50 KB)


-------------------- Discriminator Architecture --------------------
Model: "sequential_1"
┏━━━━━━━━━━━━━━━━━━━━━━━━━━━━━━━━━━━━━━┳━━━━━━━━━━━━━━━━━━━━━━━━━━━━━┳━━━━━━━━━━━━━━━━━┓
┃ Layer (type)                         ┃ Output Shape                ┃         Param # ┃
┡━━━━━━━━━━━━━━━━━━━━━━━━━━━━━━━━━━━━━━╇━━━━━━━━━━━━━━━━━━━━━━━━━━━━━╇━━━━━━━━━━━━━━━━━┩
│ conv2d (Conv2D)                      │ (None, 24, 24, 32)          │             544 │
├──────────────────────────────────────┼─────────────────────────────┼─────────────────┤
│ leaky_re_lu_2 (LeakyReLU)            │ (None, 24, 24, 32)          │               0 │
├──────────────────────────────────────┼─────────────────────────────┼─────────────────┤
│ dropout (Dropout)                    │ (None, 24, 24, 32)          │               0 │
├──────────────────────────────────────┼─────────────────────────────┼─────────────────┤
│ conv2d_1 (Conv2D)                    │ (None, 6, 6, 64)            │          32,832 │
├──────────────────────────────────────┼─────────────────────────────┼─────────────────┤
│ leaky_re_lu_3 (LeakyReLU)            │ (None, 6, 6, 64)            │               0 │
├──────────────────────────────────────┼─────────────────────────────┼─────────────────┤
│ dropout_1 (Dropout)                  │ (None, 6, 6, 64)            │               0 │
├──────────────────────────────────────┼─────────────────────────────┼─────────────────┤
│ flatten (Flatten)                    │ (None, 2304)                │               0 │
├──────────────────────────────────────┼─────────────────────────────┼─────────────────┤
│ dense_1 (Dense)                      │ (None, 1)                   │           2,305 │
└──────────────────────────────────────┴─────────────────────────────┴─────────────────┘
 Total params: 35,681 (139.38 KB)
 Trainable params: 35,681 (139.38 KB)
 Non-trainable params: 0 (0.00 B)


==================================================
TRAINING RESULTS FOLLOW BELOW
==================================================

Epoch, Time(s), Generator_Loss, Discriminator_Loss
1, 16.17, 0.5522, 1.3288
…
