…
Learning Rate: {'module': 'keras.optimizers.schedules', 'class_name': 'ExponentialDecay', 'config': {'initial_learning_rate': 0.0002, 'decay_steps': 300, 'decay_rate': 0.95, 'staircase': False, 'name': 'ExponentialDecay'}, 'registered_name': None}
Beta 1: 0.5
==================================================
MODEL ARCHITECTURES
==================================================

-------------------- Generator Architecture --------------------
Model: "sequential"
┏━━━━━━━━━━━━━━━━━━━━━━━━━━━━━━━━━━━━━━┳━━━━━━━━━━━━━━━━━━━━━━━━━━━━━┳━━━━━━━━━━━━━━━━━┓
┃ Layer (type)                         ┃ Output Shape                ┃         Param # ┃
┡━━━━━━━━━━━━━━━━━━━━━━━━━━━━━━━━━━━━━━╇━━━━━━━━━━━━━━━━━━━━━━━━━━━━━╇━━━━━━━━━━━━━━━━━┩
│ dense (Dense)                        │ (None, 147456)              │      18,874,368 │
├──────────────────────────────────────┼─────────────────────────────┼─────────────────┤
│ batch_normalization                  │ (None, 147456)              │         589,824 │
│ (BatchNormalization)                 │                             │                 │
├──────────────────────────────────────┼─────────────────────────────┼─────────────────┤
│ leaky_re_lu (LeakyReLU)              │ (None, 147456)              │               0 │
├──────────────────────────────────────┼─────────────────────────────┼─────────────────┤
│ reshape (Reshape)                    │ (None, 24, 24, 256)         │               0 │
├──────────────────────────────────────┼─────────────────────────────┼─────────────────┤
│ conv2d_transpose (Conv2DTranspose)   │ (None, 48, 48, 128)         │         819,200 │
├──────────────────────────────────────┼─────────────────────────────┼─────────────────┤
│ batch_normalization_1                │ (None, 48, 48, 128)         │             512 │
│ (BatchNormalization)                 │                             │                 │
├──────────────────────────────────────┼─────────────────────────────┼─────────────────┤
│ leaky_re_lu_1 (LeakyReLU)            │ (None, 48, 48, 128)         │               0 │
├──────────────────────────────────────┼─────────────────────────────┼─────────────────┤
│ conv2d_transpose_1 (Conv2DTranspose) │ (None, 96, 96, 64)          │         204,800 │
├──────────────────────────────────────┼─────────────────────────────┼─────────────────┤
│ batch_normalization_2                │ (None, 96, 96, 64)          │             256 │
│ (BatchNormalization)                 │                             │                 │
├──────────────────────────────────────┼─────────────────────────────┼─────────────────┤
│ leaky_re_lu_2 (LeakyReLU)            │ (None, 96, 96, 64)          │               0 │
├──────────────────────────────────────┼─────────────────────────────┼─────────────────┤
│ conv2d_transpose_2 (Conv2DTranspose) │ (None, 96, 96, 32)          │          18,432 │
├──────────────────────────────────────┼─────────────────────────────┼─────────────────┤
│ batch_normalization_3                │ (None, 96, 96, 32)          │             128 │
│ (BatchNormalization)                 │                             │                 │
├──────────────────────────────────────┼─────────────────────────────┼─────────────────┤
│ leaky_re_lu_3 (LeakyReLU)            │ (None, 96, 96, 32)          │               0 │
├──────────────────────────────────────┼─────────────────────────────┼─────────────────┤
│ conv2d_transpose_3 (Conv2DTranspose) │ (None, 96, 96, 1)           │             289 │
└──────────────────────────────────────┴─────────────────────────────┴─────────────────┘
 Total params: 20,507,809 (78.23 MB)
 Trainable params: 20,212,449 (77.10 MB)
 Non-trainable params: 295,360 (1.13 MB)


-------------------- Discriminator Architecture --------------------
Model: "sequential_1"
┏━━━━━━━━━━━━━━━━━━━━━━━━━━━━━━━━━━━━━━┳━━━━━━━━━━━━━━━━━━━━━━━━━━━━━┳━━━━━━━━━━━━━━━━━┓
┃ Layer (type)                         ┃ Output Shape                ┃         Param # ┃
┡━━━━━━━━━━━━━━━━━━━━━━━━━━━━━━━━━━━━━━╇━━━━━━━━━━━━━━━━━━━━━━━━━━━━━╇━━━━━━━━━━━━━━━━━┩
│ conv2d (Conv2D)                      │ (None, 48, 48, 64)          │           1,664 │
├──────────────────────────────────────┼─────────────────────────────┼─────────────────┤
│ leaky_re_lu_4 (LeakyReLU)            │ (None, 48, 48, 64)          │               0 │
├──────────────────────────────────────┼─────────────────────────────┼─────────────────┤
│ spatial_dropout2d (SpatialDropout2D) │ (None, 48, 48, 64)          │               0 │
├──────────────────────────────────────┼─────────────────────────────┼─────────────────┤
│ conv2d_1 (Conv2D)                    │ (None, 24, 24, 128)         │         204,928 │
├──────────────────────────────────────┼─────────────────────────────┼─────────────────┤
│ leaky_re_lu_5 (LeakyReLU)            │ (None, 24, 24, 128)         │               0 │
├──────────────────────────────────────┼─────────────────────────────┼─────────────────┤
│ spatial_dropout2d_1                  │ (None, 24, 24, 128)         │               0 │
│ (SpatialDropout2D)                   │                             │                 │
├──────────────────────────────────────┼─────────────────────────────┼─────────────────┤
│ conv2d_2 (Conv2D)                    │ (None, 12, 12, 128)         │         147,584 │
├──────────────────────────────────────┼─────────────────────────────┼─────────────────┤
│ leaky_re_lu_6 (LeakyReLU)            │ (None, 12, 12, 128)         │               0 │
├──────────────────────────────────────┼─────────────────────────────┼─────────────────┤
│ flatten (Flatten)                    │ (None, 18432)               │               0 │
├──────────────────────────────────────┼─────────────────────────────┼─────────────────┤
│ dense_1 (Dense)                      │ (None, 1)                   │          18,433 │
└──────────────────────────────────────┴─────────────────────────────┴─────────────────┘
 Total params: 372,609 (1.42 MB)
 Trainable params: 372,609 (1.42 MB)
 Non-trainable params: 0 (0.00 B)


==================================================
TRAINING RESULTS FOLLOW BELOW
==================================================

Epoch, Time(s), Generator_Loss, Discriminator_Loss
1, 806.00, 1.7033, 0.9751
…
